backend/data.pth (torch, 7831 bytes, 6 tensors)

l1.weight f4 [8, 97]
0	0x3e26fb96	0.1630691
1	0x3ece70be	0.4032039
2	0x3f1c5610	0.6106882
3	0x3f98a3a4	1.1924939
4	0x3eec3765	0.46136013
5	0x3eda8554	0.42679846
6	0x3ebcbc4d	0.36862412
7	0xbe938651	-0.28813413
8	0xbee73236	-0.45155495
9	0x3e21cd9f	0.15801094
10	0x3f31f62e	0.69516265
11	0x3d2dd67f	0.042440888
12	0x3f7d9219	0.9905105
13	0x3f7f90e0	0.99830437
14	0xbea1d556	-0.31608075
15	0xbe9b22da	-0.30300027
16	0xbe719a74	-0.23594075
17	0xbeb0529d	-0.3443803
18	0xbe556c89	-0.20842184
19	0x3c824195	0.015900413
20	0x3dd8cce6	0.10585956
21	0xbf25f686	-0.6482929
22	0x3ed89022	0.42297465
23	0x3ece3e6e	0.40282005
24	0x3f1a2ee4	0.602278
25	0xbee70626	-0.45121878
26	0x3ecdc6bc	0.40190685
27	0xbebd169e	-0.36931318
28	0x3eae8e22	0.34092814
29	0xbec8f406	-0.39248675
30	0xbe64c6f1	-0.22341515
31	0x3eea7fe6	0.45800704
32	0x3ec619be	0.38691515
33	0x3f3fb405	0.74884063
34	0xbd5e4039	-0.054260466
35	0xbecd8fcf	-0.4014878
36	0x3f4118ca	0.7542845
37	0xbf3654db	-0.7122323
38	0x3df36155	0.11883799
39	0x3f6c9b9a	0.9242493
40	0x3e63b754	0.22237903
41	0x3f5a49d3	0.85268897
42	0xbe2febaf	-0.1717975
43	0x3e575bf4	0.21031171
44	0x3f0b8fb1	0.5451613
45	0xbf50d5c1	-0.8157616
46	0x3f3b9f15	0.73289615
47	0xbf120618	-0.5704055
48	0x3d9e0d20	0.07717347
49	0x3ec9f1e7	0.3944237
50	0xbea6cb81	-0.32577136
51	0xbe2a18df	-0.1661105
52	0xbeb7d9c9	-0.35908344
53	0xbebc6253	-0.36793765
54	0x3e95094f	0.29108664
55	0x3e1dab94	0.15397483
56	0x3ecb6a28	0.39729428
57	0x3e0f6d61	0.14006568
58	0x3ebee039	0.37280443
59	0xbe9773b9	-0.29580477
60	0x3eba91ee	0.3643946
61	0x3e94bd6f	0.29050776
62	0xbe8d6313	-0.2761465
63	0x3f3a9ca8	0.7289529
64	0x3e8b1554	0.2716471
65	0x3e8b45d0	0.272017
66	0x3df4dda5	0.11956338
67	0x3e06a77a	0.13149825
68	0x3f17993f	0.5921821
69	0x3f6516b9	0.894878
70	0x3f4684d4	0.7754643
71	0x3f02227d	0.50833875
72	0x3d1cfeee	0.038329057
73	0xbf1717bd	-0.59020597
74	0x3f710f64	0.9416411
75	0xbf08ade8	-0.5339036
76	0xbe889cca	-0.2668212
77	0x3ea64f29	0.3248227
78	0x3e9ffcbf	0.31247517
79	0x3e53a9ba	0.20670214
80	0x3f6ce97a	0.92543757
81	0x3f10877c	0.5645673
82	0x3e80e6bf	0.25176045
83	0x3e75973c	0.23983473
84	0x3f383643	0.71957797
85	0x3f101ad2	0.56290925
86	0x3f1be7f8	0.6090083
87	0xbe95725c	-0.29188812
88	0xbec0007c	-0.3750037
89	0x3f431319	0.76201016
90	0xbec9e590	-0.39432955
91	0x3eccf521	0.4003077
92	0xbebc0cd5	-0.3672854
93	0x3e4149a8	0.18875754
94	0x3e58bb1d	0.21165128
95	0xbe4eee95	-0.202082
96	0xbd9e1c4b	-0.0772024
97	0x3f254d79	0.6457134
98	0x3df47272	0.11935891
99	0x3f20eeb2	0.6286422
100	0xbeecef1f	-0.46276185
101	0x3ee84b5a	0.4536999
102	0xbf173aa3	-0.5907385
103	0xbebedcd7	-0.37277862
104	0xbe580402	-0.21095279
105	0xbdc30e4f	-0.095242135
106	0x3ef05d10	0.46946
107	0xbf038452	-0.5137378
108	0x3f437315	0.76347476
109	0xbec60170	-0.38672972
110	0xbebd63d0	-0.36990213
111	0x3e76491a	0.24051324
112	0x3f1c910d	0.6115883
113	0x3f02cab0	0.51090527
114	0x3f2ba1d2	0.67043793
115	0x3f7f5d49	0.99751717
116	0x3f4865a6	0.78280103
117	0x3f4d1ce5	0.80122215
118	0x3ea3ab2d	0.31966534
119	0x3dd67501	0.104715355
120	0xbea1269a	-0.31474763
121	0xbef90114	-0.48633635
122	0x3f3acc02	0.7296754
123	0xbe7d199e	-0.24716803
124	0x3f17777c	0.59166694
125	0xbdeca83b	-0.11555525
126	0x3f3f0601	0.74618536
127	0x3f4a6fe8	0.79077005
128	0x3bf61db6	0.007510866
129	0x3f0ac31a	0.5420395
130	0xbed47d63	-0.41501912
131	0x3f0f1c01	0.55902106
132	0x3f820130	1.0156612
133	0xbef34884	-0.47516263
134	0x3e86cabe	0.26326555
135	0x3ef429f7	0.47688267
136	0xbf1737d9	-0.5906959
137	0x3da9700e	0.08273326
138	0xbf172fa7	-0.59057087
139	0x3f0758b2	0.52869713
140	0x3eb89586	0.36051577
141	0x3df6460e	0.120250806
142	0x3f4762a1	0.7788487
143	0xbed2a503	-0.4114152
144	0x3f277302	0.65409863
145	0x3f13c808	0.577271
146	0x3ed078c4	0.40717137
147	0x3f8210ac	1.0161338
148	0x3ee9c9d5	0.45661798
149	0xbe40b029	-0.188172
150	0x3f08e0e0	0.5346813
151	0x3eeb8e45	0.4600698
152	0x3d06582d	0.032798935
153	0xbed5ebeb	-0.41781554
154	0x3f01dd40	0.50728226
155	0x3f1647c7	0.58703274
156	0x3ee48176	0.4463002
157	0x3ec5ae3c	0.38609493
158	0x3ed9304a	0.42419654
159	0x3f0f8e7d	0.56076795
160	0xbf098647	-0.53720516
161	0x3ebd34b6	0.36954278
162	0x3ef8d5da	0.48600656
163	0xbe87f084	-0.26550686
164	0xbe891cc4	-0.2677976
165	0xbf173538	-0.5906558
166	0xbe7c4a2a	-0.24637666
167	0xbef4a45f	-0.47781655
168	0xbe91a48b	-0.2844585
169	0x3c4729fe	0.012156008
170	0x3f22bd02	0.63569653
171	0xbd02fc3b	-0.031978827
172	0xbd3132b1	-0.043261234
173	0x3f000658	0.5000968
174	0x3efeb99d	0.49750987
175	0xbe6a250e	-0.22865698
176	0x3ec60f86	0.38683718
177	0xbdc4e3f6	-0.096137926
178	0x3e108248	0.14112198
179	0x3d22ffd0	0.039794743
180	0x3eba6cd8	0.36411166
181	0xbf00f6d4	-0.5037663
182	0x3ec8ef38	0.3924501
183	0x3ec3e0c9	0.38257435
184	0x3f3bc63c	0.73349357
185	0x3f24989c	0.64295363
186	0xbee6cf59	-0.4508007
187	0x3f351704	0.70738244
188	0x3f027738	0.50963163
189	0x3f01f656	0.50766504
190	0xbe909f72	-0.28246647
191	0x3e45026c	0.19239205
192	0x3f456107	0.77101177
193	0xba982555	-0.0011607805
194	0xbdd4f9ec	-0.10399231
195	0x3f2528bb	0.64515275
196	0x3c88ae11	0.016684564
197	0x3ee48140	0.4462986
198	0x3eb1a6cb	0.34697565
199	0xbf1af0de	-0.60523784
200	0x3ecc2da5	0.39878574
201	0x3c7179c3	0.014738503
202	0xbe1cadc8	-0.15300667
203	0x3cfd7990	0.030941755
204	0xbeeecea5	-0.46642032
205	0x3e9b6f2d	0.30358258
206	0x3e34c5e2	0.17653611
207	0x3e75e863	0.2401443
208	0x3ee7ea14	0.45295775
209	0xbe3673cd	-0.17817612
210	0xbe8ea26f	-0.27858302
211	0x3ecbc0e5	0.39795604
212	0x3eb3560b	0.35026583
213	0x3e60ddd6	0.21959624
214	0xbe5c1bbf	-0.2149496
215	0xbf18c2ab	-0.5967204
216	0x3e741fe2	0.23840287
217	0x3ea75908	0.32685113
218	0x3f0e99be	0.5570334
219	0x3edb4e5d	0.42833224
220	0x3ec8f4c4	0.3924924
221	0xbe20f189	-0.15717138
222	0x3e115a83	0.14194684
223	0xbe175ecc	-0.14782256
224	0xbe37e4d1	-0.1795838
225	0x3f19bfb9	0.6005817
226	0x3ea48c52	0.32138306
227	0xbe9f4cf0	-0.31113386
228	0xbe8c105b	-0.27356228
229	0xbe08b5da	-0.13350621
230	0xbf346a35	-0.7047456
231	0xbf1af37b	-0.6052777
232	0x3f61578a	0.880242
233	0xbf1af5b2	-0.6053115
234	0x3ed2cba3	0.41170987
235	0xbf1af5ce	-0.6053132
236	0x3f0dcc11	0.55389506
237	0x3e0a93c7	0.13532935
238	0x3e913eb5	0.28368154
239	0x3fc3a179	1.5283653
240	0xbe842c0d	-0.25814858
241	0xbf71eb9c	-0.94500136
242	0x3eef2e1a	0.4671486
243	0x3e526f2d	0.20550223
244	0xbe958a1d	-0.29206935
245	0x3e3f26d8	0.18667161
246	0xbefb8e51	-0.49132016
247	0xbe273374	-0.16328222
248	0x3d2a3102	0.041550644
249	0x3e7bcd69	0.24590077
250	0x3ec0d3f7	0.37661716
251	0x3e4b8f42	0.19878867
252	0x3e66451c	0.224873
253	0xbe738343	-0.23780541
254	0x3cbbb2b5	0.022912363
255	0x3e2351e9	0.15949215

l1.bias f4 [8]
0	0x3f831156	1.0239666
1	0x3f17341f	0.59063905
2	0x3f1af766	0.6053375
3	0x3f48d255	0.7844594
4	0x3f8c0551	1.0939122
5	0x3f87e6f5	1.0617357
6	0x3f498a0e	0.7872628
7	0x3f8e6bed	1.1126686

l2.weight f4 [8, 8]
0	0x3e9738df	0.29535577
1	0xbf221e5b	-0.6332757
2	0x3ec02617	0.3752906
3	0x3fdb4c34	1.713263
4	0x3ed714d2	0.42008072
5	0x3eda9cac	0.42697656
6	0xbfd96a7c	-1.6985621
7	0x3febf5af	1.8434352
8	0xbf6e935e	-0.93193614
9	0x3fef0f60	1.8676567
10	0x3f9f09b0	1.2424831
11	0x3fb6ad7d	1.4271694
12	0x3e4f2f57	0.20232902
13	0x3f7b39a2	0.98134816
14	0x3f1646ab	0.5870158
15	0x3d766259	0.060152385
16	0x3fcb61f1	1.5889264
17	0xbf7618e5	-0.96131736
18	0x3d851324	0.064977914
19	0x3e3aadf4	0.1823042
20	0x3fecfa78	1.8513937
21	0xbf1db259	-0.6160026
22	0x3f4245b5	0.75887614
23	0x3f4670cb	0.7751586
24	0xbe835ee0	-0.2565832
25	0x3f1a980a	0.60388243
26	0xbfe2aff8	-1.7709951
27	0xbb720926	-0.0036931722
28	0x3f2b478f	0.66906065
29	0x3fcdf711	1.6091024
30	0xbf8ddb65	-1.1082579
31	0x3f9239e9	1.1423923
32	0x3f645d77	0.89205116
33	0xbf0e83f4	-0.55670094
34	0x3ef1a24d	0.47194138
35	0xbf0bf233	-0.5466644
36	0x3fba72bc	1.4566264
37	0x3fa032f2	1.2515547
38	0xbf4ded88	-0.8044057
39	0x3e88e049	0.26733616
40	0xbe337120	-0.17523623
41	0x3f2bc5ce	0.670987
42	0xbff45a4e	-1.9090059
43	0x3f79644b	0.9741866
44	0xbf3db44b	-0.7410323
45	0x3ecebc79	0.40378168
46	0x3fc8a10f	1.5674151
47	0x3fe7ad68	1.8099794
48	0x3fbb03ca	1.4610531
49	0xbf2cbf64	-0.6747954
50	0xbf8975f1	-1.0739118
51	0x3e4462ee	0.19178364
52	0xbe30a0dd	-0.17248864
53	0x3fcf1970	1.6179638
54	0x3f183cd5	0.5946782
55	0xbe5a9db3	-0.2134922
56	0x3f9dd73d	1.233131
57	0xbe40f24c	-0.18842429
58	0xbf06b9bf	-0.52627176
59	0x3f8e43f7	1.1114491
60	0xbe28262a	-0.16420808
61	0x3d294438	0.041324824
62	0x3eb4d7d1	0.35320905
63	0xbe9fb281	-0.31190875

l2.bias f4 [8]
0	0x3f2365ea	0.63827384
1	0xbef6f964	-0.48237145
2	0x3f99821c	1.1992831
3	0x3f623597	0.8836302
4	0xbef504fd	-0.47855368
5	0x3e401d4b	0.18761174
6	0x3df21bfb	0.11821743
7	0xbf26b6ac	-0.65122485

l3.weight f4 [26, 8]
0	0xbf97886d	-1.1838509
1	0xc022e89f	-2.545448
2	0x3f2fc37a	0.6865765
3	0xbf0bff9b	-0.546869
4	0xbfa00312	-1.2500937
5	0x3db14314	0.08655372
6	0x3f23c0b6	0.6396593
7	0xbeae3096	-0.34021443
8	0xbeb44177	-0.35206196
9	0xc0093486	-2.1438308
10	0x3f1aaca1	0.6041966
11	0xbf4704ce	-0.77741706
12	0x3defb4d0	0.11704409
13	0xbffed261	-1.9907953
14	0x3e909f24	0.28246415
15	0x3f2f0ee1	0.6838208
16	0xbfbde8b3	-1.4836639
17	0x3eaf06fb	0.34185013
18	0xbfb50a17	-1.4143704
19	0xbf00d95f	-0.5033168
20	0xbf8126a1	-1.0089914
21	0x3ee147e8	0.44000173
22	0xbfa61a32	-1.2976744
23	0xbe9bdd2d	-0.3044218
24	0xbf90eddc	-1.1322589
25	0x3eb96eca	0.36217338
26	0xbfb29b1d	-1.3953587
27	0x3f6f4e47	0.93478817
28	0xbfafe897	-1.3742856
29	0x3da91925	0.08256749
30	0xbfd9d7a4	-1.7018933
31	0xbff92c9b	-1.9466738
32	0xbe153625	-0.14571436
33	0x3e067c10	0.13133264
34	0xbfdf4288	-1.7442179
35	0x3e21afb2	0.15789679
36	0xbf98a126	-1.1924179
37	0x3d0b355c	0.033986434
38	0x3e2644e6	0.1623722
39	0xbeb3fe0e	-0.35154766
40	0x3e33edda	0.17571202
41	0x3bd759cb	0.0065719835
42	0xbfd020cf	-1.6260012
43	0x3ed4ad32	0.41538388
44	0xbdd5b8a7	-0.1043561
45	0x3e455cf0	0.19273734
46	0xbf2ddf13	-0.6791851
47	0xbff3f345	-1.9058615
48	0xbfcbc012	-1.591799
49	0x3e15a583	0.14613919
50	0x3f406055	0.7514699
51	0xbf0c7f13	-0.548814
52	0xbff023eb	-1.8760961
53	0xbd152145	-0.03640868
54	0xbfb25fd9	-1.39355
55	0xbf2c5b47	-0.6732678
56	0xbda771c2	-0.081759945
57	0xc01cf449	-2.45241
58	0x3f53e298	0.8276763
59	0x3ef7ed59	0.4842327
60	0xbdccafff	-0.09994506
61	0x3dcd9d76	0.10039799
62	0xbf318ec7	-0.69358486
63	0xc03114f4	-2.7669039
64	0xbefac2a5	-0.48976627
65	0x3d9b9ce6	0.075982854
66	0xbedea7a3	-0.43487272
67	0xbf6455b3	-0.89193267
68	0xbf8b1d18	-1.0868254
69	0x3ec87fcc	0.3916
70	0xbfb11660	-1.3834953
71	0x3c4346b7	0.011918715
72	0x3f057379	0.5212932
73	0xbd8966ae	-0.06709038
74	0xbf34a421	-0.7056294
75	0xbdfd022b	-0.12353929
76	0xbf9d7bf3	-1.2303451
77	0xbd8a48e1	-0.06752182
78	0xbfd31fae	-1.6494043
79	0xbe263a9c	-0.16233295
80	0xbd511361	-0.05104387
81	0xbddc2f7d	-0.10751245
82	0xbee19290	-0.4405713
83	0x3e261a2e	0.16220924
84	0xbd9c8bc3	-0.07643845
85	0xbee62660	-0.44951153
86	0xbdb9d45e	-0.09073709
87	0x3e3cdbef	0.18443273
88	0x3f0b1e32	0.5434295
89	0xbf5bca9d	-0.8585604
90	0xbe9a1b48	-0.3009894
91	0x3f4b5e0c	0.7944038
92	0x3e7d5d65	0.24742658
93	0xbed6f8d5	-0.4198672
94	0xbe7956f5	-0.24349578
95	0xbfdc1c25	-1.7196089
96	0xbf98d106	-1.1938789
97	0x3eb987fd	0.36236563
98	0x3f14f6b6	0.5818895
99	0xbf39e6c2	-0.72617733
100	0x3ebee773	0.37285957
101	0xbfee943b	-1.8638986
102	0x3da59bce	0.08086358
103	0xc0080ef4	-2.1259127
104	0xbe398343	-0.18116479
105	0x3e5861ad	0.2113101
106	0x3e0652e5	0.13117559
107	0xbf1c2280	-0.6099014
108	0x3e94122d	0.28920117
109	0x3c71f4dc	0.014767852
110	0xc013d77b	-2.310027
111	0xc007cd20	-2.1218948
112	0x3e69e965	0.22842939
113	0xc00f05fd	-2.2347405
114	0x3eb07f46	0.34472102
115	0x3f635853	0.8880665
116	0x3ea99925	0.33124653
117	0xbfccaf2c	-1.5990958
118	0x3f0a4532	0.54011834
119	0xbf469c74	-0.7758248
120	0xbf2bc896	-0.67102945
121	0x3f7fa0bf	0.99854654
122	0xbfa7208f	-1.3056811
123	0xbf5c29a3	-0.8600103
124	0xbf9b519e	-1.2134283
125	0xbe09af58	-0.13445795
126	0xbf9132bd	-1.1343609
127	0xc016bdee	-2.3553424
128	0x3f81a660	1.0128899
129	0x3efd214f	0.49439475
130	0x3c32cb30	0.0109127015
131	0xbe821903	-0.25409707
132	0xbfe9e90e	-1.8274248
133	0xc00319aa	-2.0484414
134	0xbfa0d951	-1.256632
135	0xbfef4b4c	-1.8694854
136	0xbfbb7449	-1.4644862
137	0x3a02a16e	0.00049831613
138	0xbf2b60a2	-0.66944325
139	0x3e9e92b3	0.30971298
140	0xbf78c67a	-0.9717785
141	0x3f12ea42	0.573887
142	0x3e722e71	0.23650528
143	0xc01ac575	-2.4183018
144	0x3cb8d264	0.02256126
145	0xbf0091b1	-0.5022231
146	0x3df8d90c	0.121507734
147	0x3f436c35	0.76336986
148	0xc010bbcf	-2.261463
149	0x3f056363	0.5210478
150	0xc01239eb	-2.284785
151	0xc01764e6	-2.3655334
152	0x3f0e799b	0.55654305
153	0xbfe6a95a	-1.8020432
154	0x3f355f4d	0.7084854
155	0xbf219447	-0.6311688
156	0x3f1597a8	0.58434534
157	0xbfdcd4a9	-1.7252399
158	0xbf148e14	-0.58029294
159	0xbfb30ff9	-1.398925
160	0x3f194024	0.59863496
161	0xbfa4e35e	-1.2881887
162	0xbe42b942	-0.19015983
163	0x3dbd505d	0.09243844
164	0xbf8e67c0	-1.1125412
165	0x3e266ba6	0.16252002
166	0x3e103636	0.1408318
167	0xbee6f5fc	-0.45109546
168	0xbeb5573f	-0.35418126
169	0xbf5464f0	-0.8296652
170	0xbe9038a1	-0.28168204
171	0xbfb4b952	-1.4119055
172	0xbfcf08ec	-1.6174598
173	0x3ecc63c3	0.39919862
174	0x3e3e2d46	0.18571958
175	0x3eb817f5	0.35955778
176	0xbe62efbb	-0.22161762
177	0xbf4cad39	-0.79951817
178	0xbde42cd7	-0.11141365
179	0xbf62c198	-0.8857665
180	0xbd94a69c	-0.07258341
181	0xbf4a8021	-0.7910176
182	0x3ee1d56b	0.44108137
183	0x3f424350	0.7588396
184	0xbd81ae5e	-0.06332086
185	0xbf98eeb3	-1.1947845
186	0xbe21c3cd	-0.15797348
187	0xbf1c7884	-0.6112139
188	0x3f3b8f33	0.7326538
189	0xc008a0d4	-2.1348162
190	0x3f5674ae	0.8377179
191	0x3e5615dc	0.20906776
192	0x3ed410f7	0.41419193
193	0xbe569b5c	-0.20957702
194	0x3dd69f4b	0.104796015
195	0x3e3c272c	0.18374318
196	0x3dde9a58	0.108692825
197	0xc00439cb	-2.0660274
198	0xbdc6e20f	-0.09711086
199	0x3debb9bb	0.11510035
200	0xbd131c0e	-0.035915427
201	0x3eba4f8b	0.3638881
202	0xbfaf60fe	-1.3701475
203	0x3e955577	0.29166767
204	0x3f1ab2c9	0.60429054
205	0xbf900110	-1.1250324
206	0xbf02f33d	-0.511524
207	0xbfbe96f6	-1.488982

l3.bias f4 [26]
0	0x3f4ae314	0.79252744
1	0xbe15ced5	-0.14629681
2	0xbe876e35	-0.2645127
3	0x3e232305	0.15931328
4	0xbe637297	-0.22211681
5	0xbee128f9	-0.43976572
6	0x3ebb2bbd	0.36556807
7	0x3cd3f518	0.025873706
8	0xbece6679	-0.40312555
9	0xbd85d68b	-0.065350614
10	0xbece98e7	-0.4035103
11	0xbe6f772d	-0.23385306
12	0x3f337021	0.7009297
13	0xbb4c804d	-0.0031204403
14	0xbc5a7e00	-0.013335705
15	0x3e7ae7fe	0.2450256
16	0x3f06f92c	0.52723956
17	0x3d884a1a	0.06654759
18	0xbb339f1d	-0.0027408071
19	0x3d4714da	0.04860387
20	0xbc3d89e1	-0.011568517
21	0xbe8ea087	-0.27856848
22	0xbe0125ea	-0.1261212
23	0xbe84a4cc	-0.2590698
24	0xbd1e69da	-0.038675167
25	0xbe76faa0	-0.24119043
